…
2025-06-18 23:59:02.496155: I tensorflow/core/util/port.cc:153] oneDNN custom operations are on. You may see slightly different numerical results due to floating-point round-off errors from different computation orders. To turn them off, set the environment variable `TF_ENABLE_ONEDNN_OPTS=0`.
2025-06-18 23:59:02.527008: I tensorflow/core/platform/cpu_feature_guard.cc:210] This TensorFlow binary is optimized to use available CPU instructions in performance-critical operations.
To enable the following instructions: SSE4.1 SSE4.2 AVX AVX2 AVX_VNNI FMA, in other operations, rebuild TensorFlow with the appropriate compiler flags.
Split Learning Scheme: Overall Cutting_layer 4/13
Total number of batches per epoch for each client is  391
32
original channel size of smashed-data is 128
added bottleneck, new channel size of smashed-data is 8
local:
Sequential(
  (0): Conv2d(3, 64, kernel_size=(3, 3), stride=(1, 1), padding=(1, 1))
  (1): BatchNorm2d(64, eps=1e-05, momentum=0.1, affine=True, track_running_stats=True)
  (2): ReLU(inplace=True)
  (3): MaxPool2d(kernel_size=2, stride=2, padding=0, dilation=1, ceil_mode=False)
  (4): Conv2d(64, 128, kernel_size=(3, 3), stride=(1, 1), padding=(1, 1))
  (5): BatchNorm2d(128, eps=1e-05, momentum=0.1, affine=True, track_running_stats=True)
  (6): ReLU(inplace=True)
  (7): MaxPool2d(kernel_size=2, stride=2, padding=0, dilation=1, ceil_mode=False)
  (8): Conv2d(128, 8, kernel_size=(3, 3), stride=(1, 1), padding=(1, 1))
  (9): LCALayer()
  (10): Sigmoid()
)
cloud:
Sequential(
  (0): Conv2d(8, 128, kernel_size=(3, 3), stride=(1, 1), padding=(1, 1))
  (1): Conv2d(128, 256, kernel_size=(3, 3), stride=(1, 1), padding=(1, 1))
  (2): BatchNorm2d(256, eps=1e-05, momentum=0.1, affine=True, track_running_stats=True)
  (3): ReLU(inplace=True)
  (4): Conv2d(256, 256, kernel_size=(3, 3), stride=(1, 1), padding=(1, 1))
  (5): BatchNorm2d(256, eps=1e-05, momentum=0.1, affine=True, track_running_stats=True)
  (6): ReLU(inplace=True)
  (7): MaxPool2d(kernel_size=2, stride=2, padding=0, dilation=1, ceil_mode=False)
  (8): Conv2d(256, 512, kernel_size=(3, 3), stride=(1, 1), padding=(1, 1))
  (9): BatchNorm2d(512, eps=1e-05, momentum=0.1, affine=True, track_running_stats=True)
  (10): ReLU(inplace=True)
  (11): Conv2d(512, 512, kernel_size=(3, 3), stride=(1, 1), padding=(1, 1))
  (12): BatchNorm2d(512, eps=1e-05, momentum=0.1, affine=True, track_running_stats=True)
  (13): ReLU(inplace=True)
  (14): MaxPool2d(kernel_size=2, stride=2, padding=0, dilation=1, ceil_mode=False)
  (15): Conv2d(512, 512, kernel_size=(3, 3), stride=(1, 1), padding=(1, 1))
  (16): BatchNorm2d(512, eps=1e-05, momentum=0.1, affine=True, track_running_stats=True)
  (17): ReLU(inplace=True)
  (18): Conv2d(512, 512, kernel_size=(3, 3), stride=(1, 1), padding=(1, 1))
  (19): BatchNorm2d(512, eps=1e-05, momentum=0.1, affine=True, track_running_stats=True)
  (20): ReLU(inplace=True)
  (21): MaxPool2d(kernel_size=2, stride=2, padding=0, dilation=1, ceil_mode=False)
)
classifier:
Sequential(
  (0): Dropout(p=0.5, inplace=False)
  (1): Linear(in_features=512, out_features=512, bias=True)
  (2): ReLU(inplace=True)
  (3): Dropout(p=0.5, inplace=False)
  (4): Linear(in_features=512, out_features=512, bias=True)
  (5): ReLU(inplace=True)
  (6): Linear(in_features=512, out_features=10, bias=True)
)
Namespace(arch='vgg11_bn_sgm', cutlayer=4, batch_size=128, filename='pretrain_False_lambd_0_noise_0.01_epoch_240_bottleneck_noRELU_C8S1_log_1_ATstrength_0.3_lr_0.05_varthres_0.125', folder='saves/cifar10/SCA_new_infocons_sgm_lg1_thre0.125', num_client=1, num_epochs=240, learning_rate=0.05, lambd=0.0, dataset_portion=1.0, client_sample_ratio=1.0, nonii
…
